best_encoder.pt (torch, 818836 bytes, 53 tensors)

embed.weight f4 [1000, 64]
-0.035358746 -0.3084666 0.020523287 0.6354301 -0.4200001 0.123662606 -0.20698228 2.325926
-0.72372746 -0.19507788 -2.5129583 -0.8307333 -1.2416543 -0.38744283 0.42262775 1.5598357
-0.8722424 0.14332838 -1.4352934 0.12527461 -0.5714904 -1.4429754 -0.8609486 0.89850616
1.7569546 0.05858486 0.96243995 0.4875361 0.25715688 -0.041795887 -0.4147362 0.89998066
-0.54544234 -0.62567735 -0.3981038 -0.6102428 -0.7354034 0.09984858 0.9252021 0.05727657
-0.20849103 -0.62192726 0.107725754 2.118882 0.3612424 -0.98114717 0.026479768 0.45543352
-1.4505416 -0.876404 0.13333009 1.173384 0.30582446 1.2077034 0.9332831 -0.83948225
0.957996 1.6488508 0.07353074 0.3421347 -0.43458608 0.27784434 0.8797651 -0.81645477
0.18958168 0.7209922 0.05683708 -0.8313329 0.4980463 0.15545967 -0.8733376 -0.47537726
-0.16706136 0.2458362 -2.132145 0.80340374 0.43795848 -0.76553303 -0.55501455 0.13061492
1.1813653 -0.7532877 0.75821185 0.53084445 -2.308994 -0.50202304 -1.3988957 -0.7675294
-0.64383197 1.6224356 0.97469634 2.81955 2.120028 -0.6569828 -0.5681868 0.9807146
0.75674427 0.36687908 1.2258267 -0.13329796 -0.1760215 0.48569107 -0.9384205 0.76659983
-1.2221687 0.27883264 -0.41021815 -1.2859997 0.83651024 1.5462936 -1.2808646 -1.8271049
1.7359496 1.1851573 0.44220594 0.58625436 -0.7187632 -0.4440501 -1.4216802 0.3366242
0.52286315 -0.97253114 0.35241163 -1.2365735 -0.7844072 -0.59557056 -0.18420656 0.34534413
-1.0256995 -0.5707464 -0.27019808 -0.47513255 -1.3966165 -1.0089328 0.7716572 0.21952413
-0.34424004 -1.2200838 0.4740612 1.0264833 -1.4070374 1.5191629 0.69154704 1.5011584
-0.5157179 -0.93132126 -0.7448036 0.7335896 -1.0698148 -0.12106383 0.508447 1.5885297
0.9875365 1.1116148 -0.07811359 -1.5372823 -0.04290081 0.55775476 0.5693044 4.140393
0.2667237 0.050095506 -0.57784367 -1.9549162 1.1590416 1.4807442 1.0444956 1.3575449
0.75165004 0.18147391 0.89522916 -2.8535707 -0.42426452 1.9906052 0.29958218 -1.5895197
-0.20341888 0.53294927 -2.0233524 -0.4856858 -0.09908168 -1.3691396 0.077114865 0.06615469
1.8268445 0.25136268 0.14774527 1.5759226 -1.3526468 -1.2123958 0.9286295 0.8626961
-1.7654921 0.07973875 1.9381338 -1.4734988 0.08257078 0.18798254 -0.6915968 1.4122559
-0.6201711 -1.9036648 0.36026347 -0.31988797 -0.50316525 -0.2641641 1.3534435 0.54583806
-0.60305613 -0.018560423 -1.4104621 0.2517908 0.98130083 0.3179839 1.8441266 1.848547
-0.21730752 -0.49362707 -1.3583059 0.8911988 -0.045484304 -0.090209976 -0.25814033 0.4246246
-0.9166556 -0.35127914 -0.34694862 0.09115397 1.9411162 0.35252476 0.40631336 2.0581427
-1.0524948 1.0176007 0.09996556 -1.4306155 -0.21654321 -1.9308922 1.8225973 0.2138274
0.88712776 0.10662411 -1.8238173 -0.9605496 -1.2763364 -0.868875 -0.7345777 0.062391058
-1.0755942 -0.04303134 0.045168106 -0.57948273 -0.77657056 0.40659705 -1.3268812 0.4907503
00000000: 55d4 10bd 56ef 9dbe 7420 a83c 8cab 223f
00000010: 410a d7be d242 fd3d 2af3 53be f9db 1440
00000020: 3446 39bf 7fc2 47be 4fd4 20c0 f0aa 54bf
00000030: 87ee 9ebf e85e c6be aa62 d83e b2a8 c73f
00000040: 474b 5fbf adc4 123e b2b7 b7bf fd47 003e
00000050: 324d 12bf 6bb3 b8bf 2167 5cbf 8004 663f
00000060: e3e3 e03f aef6 6f3d 7762 763f 559e f93e
00000070: 11aa 833e 2a32 2bbd 4e58 d4be 2265 663f
00000080: 1ca2 0bbf 642c 20bf 43d4 cbbe df38 1cbf
00000090: 6643 3cbf 6a7d cc3d 0bda 6c3f d69a 6a3d
000000a0: ac7e 55be a036 1fbf 529f dc3d c39b 0740
000000b0: c4f4 b83e 762c 7bbf 19ec d83c 952e e93e
000000c0: 59ab b9bf 035c 60bf af87 083e 7231 963f
000000d0: 0695 9c3e 0696 9a3f a4eb 6e3f 4fe8 56bf
000000e0: 3a3f 753f 8b0d d33f 4997 963d 482c af3e
000000f0: 1182 debe 9d41 8e3e 4938 613f 2e03 51bf
00000100: b321 423e f292 383f ffcd 683d 3cd2 54bf
00000110: edff fe3e d230 1f3e 0e93 5fbf a664 f3be
00000120: 2212 2bbe 7cbc 7b3e 1075 08c0 deab 4d3f
00000130: 183c e03e f9f9 43bf 6f15 0ebf ebbf 053e
00000140: fa36 973f 76d7 40bf 2c1a 423f 6ce5 073f
00000150: 8fc6 13c0 9584 00bf 040f b3bf cf7c 44bf
00000160: 2cd2 24bf f8ab cf3f b385 793f 8273 3440
00000170: 8aae 0740 0630 28bf b174 11bf 1d10 7b3f
00000180: feb9 413f 93d7 bb3e e4e7 9c3f 437f 08be
00000190: fb3e 34be 80ac f83e 533c 70bf e33f 443f
000001a0: 0670 9cbf 27c3 8e3e 1d08 d2be a39b a4bf
000001b0: 8925 563f f3ec c53f 5ff3 a3bf 93de e9bf
000001c0: 9933 de3f 3cb3 973f d168 e23e c414 163f
000001d0: dd00 38bf 895a e3be 9ef9 b5bf 025a ac3e
000001e0: 5cda 053f cdf7 78bf 4c6f b43e 0a48 9ebf
000001f0: e9ce 48bf 5077 18bf a5a0 3cbe f2d0 b03e
00000200: 1f4a 83bf 701c 12bf 6757 8abe 9344 f3be
00000210: 54c4 b2bf b624 81bf 548b 453f efca 603e
00000220: 3b40 b0be b52b 9cbf 26b8 f23e ce63 833f
00000230: cd19 b4bf ee73 c23f 3a09 313f f525 c03f
00000240: 1706 04bf 126b 6ebf 73ab 3ebf 87cc 3b3f
00000250: b1ef 88bf 50f0 f7bd 9529 023f f154 cb3f
00000260: 31cf 7c3f 6549 8e3f 05fa 9fbd abc5 c4bf
00000270: c2b8 2fbd 04c9 0e3f efbd 113f 197e 8440
00000280: 0290 883e f230 4d3d 90ed 13bf b23a fabf
00000290: 7a5b 943f 0789 bd3f 08b2 853f 08c4 ad3f
000002a0: 236c 403f 4cd4 393e bd2d 653f e7a0 36c0
000002b0: 3339 d9be 27cc fe3f d662 993e 6275 cbbf
000002c0: 0a4d 50be 5d6f 083f 9b7e 01c0 cfab f8be
000002d0: 56eb cabd f73f afbf 66ee 9d3d 1c7c 873d
000002e0: 0ad6 e93f 9cb2 803e 894a 173e d5b7 c93f
000002f0: 8823 adbf c92f 9bbf aaba 6d3f a7d9 5c3f
00000300: a5fb e1bf 124e a33d c514 f83f 9c9b bcbf
00000310: de1a a93d 7f7e 403e 7d0c 31bf cdc4 b43f
00000320: 89c3 1ebf 4aab f3bf 7474 b83e 5bc8 a3be
00000330: 70cf 00bf 8440 87be a33d ad3f 0bbc 0b3f
00000340: e361 1abf 070c 98bc 068a b4bf b9ea 803e
00000350: 8836 7b3f c9ce a23e 570c ec3f 309d ec3f
00000360: dd85 5ebe b0bc fcbe f8dc adbf 9b25 643f
00000370: c04d 3abd 02c0 b8bd f82a 84be 6568 d93e
00000380: f1a9 6abf dcda b3be 40a3 b1be efae ba3d
00000390: 7f76 f83f 207e b43e 4e08 d03e 9cb8 0340
000003a0: 26b8 86bf bd40 823f beba cc3d 691e b7bf
000003b0: 81bd 5dbe 7a27 f7bf de4a e93f 92f5 5a3e
000003c0: ce1a 633f be5d da3d d872 e9bf 94e6 75bf
000003d0: fe5e a3bf 986e 5ebf 490d 3cbf c48d 7f3d
000003e0: 12ad 89bf a141 30bd 3102 393d fb58 14bf
000003f0: 54cd 46bf 7d2d d03e 3ed7 a9bf a043 fb3e

encoder.layers.0.self_attn.in_proj_weight f4 [192, 64]
0.14610873 0.18487255 0.23159817 0.1926047 0.106360406 -0.013259297 -0.16921781 -0.1324837
0.009703244 0.29516682 0.2932387 0.07165627 -0.06432923 -0.41623682 -0.11010202 -0.112163275
-0.13385293 -0.2523964 -0.08554481 0.115395606 0.5882453 -0.056571074 -0.37153193 -0.3091973
-0.48091373 -0.16903381 0.0010593202 0.22677577 0.101578556 0.4853008 -0.09397957 0.5230183
-0.22318128 -0.43753687 0.049002267 -0.02797558 -0.49698916 -0.073099725 0.319749 -0.0495279
0.3655825 0.38560924 -0.18190484 0.099165656 0.20032822 -0.15042065 -0.13470182 0.005949722
-0.2468674 -0.024084808 -0.12524842 -0.10281075 0.1577877 -0.011019226 0.0919846 0.06747892
0.043943867 -0.029304989 -0.18190451 0.46023047 0.27565283 0.020380093 0.17327805 -0.1465303
-0.18239295 -0.32922888 0.1595886 -0.06440644 -0.22475047 -0.21948344 -0.09285919 -0.26156616
0.21456417 0.18753752 -0.0016709742 -0.16199958 0.19685853 -0.049981605 -0.016062876 0.006322278
0.22500646 0.1708099 -0.33560055 0.15933765 -0.03964478 -0.026861224 -0.10531294 0.12564851
0.020324187 0.16409284 -0.1353437 0.13124819 0.3256702 -0.10872675 0.061965473 0.20044757
-0.047517527 -0.14857379 -0.16755559 -0.45847616 -0.21992995 0.2534606 0.37177822 0.35291985
-0.108715065 -0.02391324 0.21274611 0.095784985 -0.2156018 -0.15484987 -0.19729152 0.1256694
-0.43137926 0.3740511 0.1736208 -0.046682123 -0.00487984 -0.107498266 -0.060914926 0.21942419
0.33505398 0.3466855 0.0037102015 0.092381395 0.38195673 -0.18368472 -0.023492679 -0.44620454
-0.023463206 0.09236969 -0.287396 0.29848143 -0.11644884 -0.094467215 -0.0756555 -0.07300514
0.20093922 0.05365721 0.16734381 -0.04846388 -0.142401 -0.09956563 0.07453925 -0.36097988
-0.3113396 -0.15671751 0.2844577 0.050297577 -0.01230439 0.13446584 -0.10119925 0.14598957
0.4055915 -0.17915043 -0.17577796 0.066242605 -0.47569317 -0.221276 0.17236862 0.5697616
0.08896743 0.15322457 0.35437837 0.15700291 0.1729469 -0.19340885 -0.67892635 -0.12474044
-0.14169961 -0.13359402 0.2922536 0.17526175 0.12623127 -0.17935795 -0.11955804 0.102611
-0.1643049 0.044516962 0.069431856 -0.010972318 0.15676384 -0.3246385 -0.012731777 0.5210352
0.37181306 -0.11578299 -0.1259873 -0.06457408 -0.15969557 -0.09671063 9.355916e-05 0.105578065
-0.0826177 -0.3157897 0.42436537 0.08256037 -0.2324884 -0.2592279 -0.3265372 -0.19498137
0.012859215 0.3060607 0.13912551 -0.026072303 -0.1158867 0.018881246 -0.16755463 0.40205523
-0.10010299 -0.3076063 -0.27262148 0.04346629 -0.16320366 0.30679625 -0.062749065 -0.02158055
0.3602633 -0.13213225 0.26362222 0.06299629 0.2543107 -0.05140838 0.54955 0.017911844
-0.17385286 -0.17040919 -0.4699139 -0.054389346 0.0254982 -0.08961631 0.25064215 -0.22211781
-0.31911954 -0.11515646 0.15634568 -0.14677425 0.040159855 0.1638547 -0.004097285 0.43226072
0.01346106 -0.1816542 -0.007501475 0.31377503 0.067165576 0.00028124393 -0.18926163 -0.06652854
-0.23176602 0.06560981 0.20465666 0.25264806 -0.032275192 0.12618503 -0.03578351 0.45674348
00000000: 879d 153e 3b4f 3d3e 1228 6d3e 2b3a 453e
00000010: 7cd3 d93d 863d 59bc 6f47 2dbe cfa9 07be
00000020: 5bfa 1e3c 1b20 973e 6223 963e 86c0 923d
00000030: 0bbf 83bd fe1c d5be 2b7d e1bd dcb5 e5bd
00000040: be10 09be 1a3a 81be 1e32 afbd 8854 ec3d
00000050: 3e97 163f 12b7 67bd 6f39 bebe 1c4f 9ebe
00000060: 533a f6be 3317 2dbe e3d8 8a3a e837 683e
00000070: 6b08 d03d 5979 f83e 5c78 c0bd 87e4 053f
00000080: a289 64be d504 e0be 9ab6 483d 0b2d e5bc
00000090: 5d75 febe 4fb5 95bd 24b6 a33e c4dd 4abd
000000a0: a12d bb3e 936e c53e 4345 3abe 5d17 cb3d
000000b0: d722 4d3e df07 1abe 46ef 09be e3f5 c23b
000000c0: cfca 7cbe 814d c5bc 1f41 00be 718e d2bd
000000d0: 1993 213e fc89 34bc 6c62 bc3d 6332 8a3d
000000e0: 7cfe 333d 0411 f0bc 2d45 3abe 54a3 eb3e
000000f0: 5e22 8d3e 27f4 a63c cd6f 313e 0a0c 16be
00000100: 38c5 3abe b090 a8be 326b 233e 86e7 83bd
00000110: fd24 66be 44c0 60be f62c bebd 00ec 85be
00000120: b6b6 5b3e d609 403e 9704 dbba 38e3 25be
00000130: 4895 493e 83b9 4cbd 4b96 83bc 1d2b cf3b
00000140: 1868 663e cae8 2e3e d6d3 abbe 6929 233e
00000150: 9162 22bd 120c dcbc 50ae d7bd 01aa 003e
00000160: e97e a63c f407 283e 8a97 0abe ed65 063e
00000170: 3fbe a63e 21ac debd 82cf 7d3d 2142 4d3e
00000180: bda1 42bd ba23 18be b193 2bbe 63bd eabe
00000190: 5135 61be 96c5 813e b759 be3e e9b1 b43e
000001a0: 01a6 debd b3e5 c3bc 1eda 593e eb2a c43d
000001b0: b8c6 5cbe f790 1ebe ca06 4abe 7baf 003e
000001c0: bedd dcbe a083 bf3e a7c9 313e c135 3fbd
000001d0: 11e7 9fbb 0d28 dcbd ee81 79bd bcb0 603e
000001e0: 328c ab3e c380 b13e da26 733b 7532 bd3d
000001f0: d58f c33e d917 3cbe b873 c0bc ec74 e4be
00000200: e935 c0bc 522c bd3d 9225 93be 8fd2 983e
00000210: bb7c eebd 0778 c1bd 45f1 9abd b883 95bd
00000220: 03c3 4d3e aac7 5b3d 2d5c 2b3e 1082 46bd
00000230: 91d1 11be 11e9 cbbd 09a8 983d 5bd2 b8be
00000240: e767 9fbe 8e7a 20be 71a4 913e d504 4e3d
00000250: 5a98 49bc 6ab1 093e 8d41 cfbd 4a7e 153e
00000260: b0a9 cf3e 3673 37be 23ff 33be 34aa 873d
00000270: 0e8e f3be 2d96 62be 6681 303e e5db 113f
00000280: 8e34 b63d e7e6 1c3e 1571 b53e 5fc5 203e
00000290: fe18 313e f80c 46be 1ece 2dbf ea77 ffbd
000002a0: b419 11be dfcc 08be 44a2 953e d177 333e
000002b0: c542 013e 9ca9 37be d8da f4bd b725 d23d
000002c0: 8b3f 28be 6b57 363d 4a32 8e3d 3dc5 33bc
000002d0: b386 203e 0437 a6be f198 50bc 9062 053f
000002e0: 485e be3e a21f edbd d102 01be 6a3f 84bd
000002f0: 3c87 23be 3910 c6bd 3135 c438 5039 d83d
00000300: 7833 a9bd 30af a1be 6b46 d93e 6915 a93d
00000310: 7011 6ebe 85b9 84be e22f a7be 32a9 47be
00000320: 75af 523c fdb3 9c3e eb76 0e3e 9595 d5bc
00000330: 0256 edbd d8ac 9a3c 7193 2bbe 2fda cd3e
00000340: cc02 cdbd 937e 9dbe 0b95 8bbe b509 323d
00000350: dc1e 27be 6614 9d3e 9582 80bd b2c9 b0bc
00000360: 6e74 b83e ad4d 07be 7ef9 863e 3304 813d
00000370: 0335 823e 9891 52bd 4faf 0c3f dcbb 923c
00000380: 7c06 32be bf7f 2ebe 8e98 f0be 5dc7 5ebd
00000390: 9ae1 d03c c288 b7bd 2b54 803e da72 63be
000003a0: a363 a3be 26d7 ebbd 1519 203e fd4b 16be
000003b0: a97e 243d 87c9 273e 8542 86bb 4751 dd3e
000003c0: c78b 5c3c 8f03 3abe efce f5bb 1fa7 a03e
000003d0: 1b8e 893d ec73 9339 cdcd 41be 1d40 88bd
000003e0: 1254 6dbe 705e 863d 8491 513e 165b 813e
000003f0: fe32 04bd a636 013e bb91 12bd 48da e93e

encoder.layers.0.self_attn.in_proj_bias f4 [192]
-0.080097154 0.17654765 0.16502778 0.060552504 -0.08527601 0.04256348 0.05587072 0.14232256
0.0692814 -0.0034356557 -0.057908688 -0.009957719 0.01626546 0.022768721 -0.1772651 -0.035521835
-0.039418142 0.014539045 0.028704556 -0.039580528 -0.12274109 0.08630591 -0.1266506 -0.028304867
0.028899219 0.13965781 0.06946622 0.008763065 0.04033878 0.03867374 0.004704105 -0.10866308
-0.04900581 -0.06827526 -0.12662467 0.05562724 -0.032446858 0.034541182 0.12676477 -0.0747728
0.02531528 -0.012034595 -0.12275886 0.017462157 -0.107003145 -0.15402715 -0.02443923 -0.027844159
-0.015686316 -0.11827547 0.08383302 -0.025323214 0.054315034 0.057706263 0.20847404 -0.15504178
0.05069295 -0.022235531 0.00020904047 0.1865118 -0.184332 0.14407392 0.107111335 -0.059007924
-0.0029977462 -0.0028263337 -0.0050146068 -0.012437247 -0.010910708 -0.0069521368 -0.0047203796 -0.00778691
0.0009843722 -0.0070850016 -0.011137331 0.0032995525 -0.005894863 0.004658357 0.001854493 0.0071581053
-0.0043154485 0.0126309395 -0.0022664738 0.0018610384 -0.0045859 -0.000386687 0.007866456 0.006507891
-0.0009091103 0.003405063 -0.0038543898 -0.016437247 -0.009430843 -0.0046070036 -0.0025931916 0.0036497733
0.009169015 0.01196643 0.013339041 -0.006009826 0.009654589 0.0054195193 -0.0029639988 0.0036563647
-0.0047918037 -0.009243237 0.020640917 0.010263072 -0.0031359438 0.005857222 -0.008774494 0.012059527
0.01434408 -0.014583078 0.010851014 -0.0066216188 -0.00088857353 -0.0009841343 -0.0030317665 0.0017283519
-0.005630856 -0.0038374336 0.015003828 -0.0025287997 -0.0036459656 0.0024918376 0.014054741 -0.0031585004
-0.075143084 0.05493512 0.022180134 -0.07716437 0.06501433 -0.0315172 0.013336242 -0.12330236
-0.03260169 0.06972619 -0.072467186 -0.042141583 -0.010492618 0.018402662 -0.07393953 0.040342588
0.042657338 0.09017877 0.07050793 -0.00476669 -0.016425591 0.019605463 0.008440325 0.12733497
-0.04192411 -0.13823782 0.020046156 -0.056625858 -0.026050616 -0.13241693 0.019277016 -0.036809593
0.074626036 0.013371074 -0.008219927 -0.0146423895 0.15303394 -0.14817013 0.04889387 0.037307747
-0.0087209325 -0.14838971 0.008389214 0.100161605 0.026516655 0.11623131 -0.038912248 0.047335766
-0.0012217335 -0.055550113 0.008155216 0.030277459 0.103690945 -0.068063 0.008090414 -0.08827221
-0.23972733 0.00055234664 0.06056587 -0.06372446 -0.034304626 -0.015335347 -0.07724134 0.09187458
00000000: fa09 a4bd e8c8 343e 0bfd 283e e705 783d
00000010: 30a5 aebd 0b57 2e3d b2d8 643d 01bd 113e
00000020: 68e3 8d3d bd28 61bb a931 6dbd b325 23bc
00000030: 243f 853c 7885 ba3c fb84 35be 587f 11bd
00000040: eb74 21bd 2d35 6e3c d125 eb3c 311f 22bd
00000050: ae5f fbbd 27c1 b03d b2b0 01be 9cdf e7bc
00000060: 0ebe ec3c 7502 0f3e 4e44 8e3d f592 0f3c
00000070: 473a 253d 5b68 1e3d e524 9a3b c08a debd
00000080: 51ba 48bd e6d3 8bbd e6a9 01be 64d9 633d
00000090: ffe6 04bd 0e7b 0d3d a0ce 013e 7b22 99bd
000000a0: fd61 cf3c c02c 45bc ff68 fbbd cc0c 8f3c
000000b0: 7724 dbbd 4bb9 1dbe c834 c8bc 6f19 e4bc
000000c0: 9780 80bc 693a f2bd a5b0 ab3d a172 cfbc
000000d0: 7179 5e3d 675d 6c3d 387a 553e 46c3 1ebe
000000e0: 69a3 4f3d 4a27 b6bc e031 5b39 f3fc 3e3e
000000f0: 87c1 3cbe 1d88 133e 305d db3d 4bb2 71bd
00000100: d675 44bb 033a 39bb 9251 a4bb 98c5 4bbc
00000110: d4c2 32bc c0ce e3bb 6aad 9abb 5629 ffbb
00000120: 0d06 813a 4d29 e8bb 5a79 36bc 4e3d 583b
00000130: b229 c1bb 21a5 983b 7612 f33a 8a8e ea3b
00000140: 9b68 8dbb 00f2 4e3c 1f89 14bb 16ee f33a
00000150: 5145 96bb 40bc cab9 4fe2 003c 2640 d53b
00000160: 5c51 6eba 7a27 5f3b ee99 7cbb 68a7 86bc
00000170: d383 1abc 59f6 96bb 89f2 29bb 0931 6f3b
00000180: a339 163c d80e 443c fe8b 5a3c 13ee c4bb
00000190: 482e 1e3c 3996 b13b a63f 42bb 9f9f 6f3b
000001a0: 9004 9dbb f270 17bc 2417 a93c 7226 283c
000001b0: 6884 4dbb f0ed bf3b e5c2 0fbc 5395 453c
000001c0: 6f03 6b3c dded 6ebc 74c8 313c 2afa d8bb
000001d0: 29ef 68ba 11fe 80ba 9ab0 46bb de89 e23a
000001e0: 0b83 b8bb 747d 7bbb 9ed2 753c 38ba 25bb
000001f0: 27f1 6ebb 194e 233b db45 663c d8fe 4ebb
00000200: 9ee4 99bd a603 613d 1db3 b53c 5a08 9ebd
00000210: 3c26 853d 2e18 01bd 4180 5a3c f385 fcbd
00000220: 5a89 05bd 9bcc 8e3d ad69 94bd a79c 2cbd
00000230: 3be9 2bbc 2ec1 963c 9c6d 97bd 453e 253d
00000240: 76b9 2e3d a6af b83d 7666 903d e531 9cbb
00000250: f68e 86bc a39b a03c 4a49 0a3c 1964 023e
00000260: 9eb8 2bbd 378e 0dbe d637 a43c 84f0 67bd
00000270: 1a68 d5bc 4e98 07be d5ea 9d3c a8c5 16bd
00000280: 89d5 983d 5912 5b3c dfac 06bc a2e6 6fbc
00000290: eeb4 1c3e e9b9 17be f044 483d 02d0 183d
000002a0: 3ee2 0ebc 79f3 17be ea72 093c 8721 cd3d
000002b0: 7539 d93c ae0a ee3d 7362 1fbd 26e3 413d
000002c0: 9322 a0ba 8488 63bd 759d 053c 6f08 f83c
000002d0: eb5b d43d 9d64 8bbd a88d 043c 0fc8 b4bd
000002e0: 157b 75be 5bcb 103a eb13 783d f881 82bd
000002f0: 0283 0cbd 1b41 7bbc b530 9ebd bd28 bc3d

encoder.layers.0.self_attn.out_proj.weight f4 [64, 64]
-0.03983965 0.13915907 0.029504681 0.4055854 -0.034179077 -0.15102895 0.04503107 -0.25330994
-0.07993839 -0.06139732 0.04709495 0.034419294 -0.14015244 -0.037793174 -0.021287922 0.2480773
0.09389477 0.113251574 -0.15186158 -0.23890395 -0.12014495 0.22981152 0.057518832 0.09302979
0.06295046 0.17469735 -0.2013626 -0.22616751 -0.002340168 0.023554474 -0.054675672 -0.28827345
0.17944844 -0.32495478 -0.052541956 0.029394465 -0.09651684 -0.4634597 -0.06415209 -0.16517827
0.19257134 -0.18329416 0.10649214 0.0016578488 0.16753459 -0.0033064657 -0.10066741 -0.10731521
-0.016986446 0.0343951 0.11459994 0.22561735 0.14362572 -0.15174395 0.26519364 -0.20428738
-0.121588744 -0.2564309 0.09188104 -0.031223508 0.27943215 0.09869293 -0.05838071 0.08073623
-0.061128344 0.17644027 0.3938282 -0.20570405 -0.13421182 0.2637112 0.12356637 -0.3739255
0.20241053 0.25276873 -0.22388208 0.04787727 -0.050135702 0.00065007876 0.18888077 0.4331047
0.09504161 -0.02102988 -0.07915794 -0.19720241 -0.14115103 -0.21392249 -0.07761312 0.023077382
0.48041463 0.18288645 -0.28836918 -0.12031436 0.016027037 -0.21384619 0.26268157 0.34762686
0.10331197 0.17430112 0.18298538 0.0613856 -0.0068217544 0.15245506 -0.0703079 0.1648418
-0.17517762 -0.06473562 -0.2799237 -0.3683097 0.5084042 0.109156035 -0.056362215 0.21048366
0.21143052 0.009499898 0.073571935 -0.16886799 -0.07889058 -0.37082818 0.29829237 0.25323424
0.3992936 -0.3061357 -0.080665596 0.064752035 -0.46589136 -0.29579327 -0.13048695 -0.19607504
-0.39561155 0.009351024 -0.16066302 0.15736085 0.41889766 -0.019015577 0.23930003 -0.32331097
0.13717355 0.040152743 -0.08825622 -0.15108266 0.17176071 0.11160314 0.03342946 -0.004556548
-0.22556314 -0.32199362 -0.055889253 0.21609907 0.17481913 0.20446976 -0.20014976 0.085590065
0.06541059 0.11384693 0.09703943 -0.31669757 0.575661 -0.15823983 -0.084391475 -0.047642626
-0.16695003 0.038834076 -0.49713945 -0.024130821 0.20366633 -0.25759438 0.066323325 -0.5141513
0.18689056 -0.18394962 -0.064000465 -0.18455869 -0.02513344 0.010450097 -0.1817498 0.50512326
0.22251122 -0.089333035 -0.26228496 -0.1959215 0.070221364 0.1877209 0.10676671 -0.03693135
-0.17009255 0.076423995 0.21239893 0.13992427 0.4519376 0.08269442 0.21187583 0.078418456
0.3625787 0.08018775 -0.19202827 0.17974383 -0.11212575 -0.077712186 0.121639185 0.21443291
-0.29173338 0.14650632 0.020180525 0.15019056 -0.10548235 -0.008332503 -0.1984348 0.23583968
0.018645816 0.09475706 0.24726535 -0.13053717 0.17417763 0.22725166 -0.028519392 0.37890273
0.26068684 0.1466508 -0.29624784 0.25373766 -0.09939165 0.057280052 -0.08321589 0.016205592
0.2305525 0.1675685 0.17127487 0.07642338 -0.17844975 0.22656523 0.08928489 0.22480255
-0.17084672 0.055185605 -0.3227114 0.18071502 0.19460171 0.042361315 0.086434856 0.13517201
-0.10324988 -0.13945879 0.2536875 -0.11379377 -0.03791743 0.29477364 -0.0756431 0.011854378
0.13104086 -0.107700706 -0.07790851 -0.008512148 -0.059109677 0.48211977 -0.07081496 0.11921892
00000000: e72e 23bd b77f 0e3e cdb3 f13c e4a8 cf3e
00000010: 5cff 0bbd 55a7 1abe 8072 383d d7b1 81be
00000020: bdb6 a3bd c27b 7bbd a2e6 403d 3ffb 0c3d
00000030: 1f84 0fbe 04cd 1abd 0264 aebc fa07 7e3e
00000040: e74b c03d 71f0 e73d 9a81 1bbe 3da3 74be
00000050: 8e0e f6bd b653 6b3e de98 6b3d 6786 be3d
00000060: 2cec 803d dde3 323e ff31 4ebe 7598 67be
00000070: 815d 19bb 50f5 c03c 99f3 5fbd 9498 93be
00000080: 55c1 373e 7960 a6be 3c36 57bd a9cc f03c
00000090: 9faa c5bd 974a edbe 2c62 83bd 7e24 29be
000000a0: 6c31 453e 77b1 3bbe 8d18 da3d 2d4c d93a
000000b0: 308e 2b3e 4ab1 58bb b72a cebd 14c8 dbbd
000000c0: 2927 8bbc e0e1 0c3d 60b3 ea3d 3c08 673e
000000d0: 9f12 133e c462 1bbe 76c7 873e b630 51be
000000e0: 8503 f9bd e94a 83be 202c bc3d 71c8 ffbc
000000f0: bb11 8f3e 851f ca3d 9d20 6fbd 0959 a53d
00000100: b761 7abd c2ac 343e daa3 c93e 15a4 52be
00000110: d36e 09be 2805 873e 5d10 fd3d 2a73 bfbe
00000120: b544 4f3e e76a 813e 5841 65be f51a 443d
00000130: 185b 4dbd 0c6a 2a3a f669 413e e6bf dd3e
00000140: 2da5 c23d db46 acbc 8f1d a2bd 6eef 49be
00000150: e589 10be 7f0e 5bbe a1f3 9ebd c70c bd3c
00000160: e8f8 f53e 9646 3b3e 20a5 93be 6067 f6bd
00000170: 224b 833c 7ffa 5abe 337e 863e 26fc b13e
00000180: 3a95 d33d fe7b 323e 8560 3b3e 786f 7b3d
00000190: 0689 dfbb 2e1d 1c3e 97fd 8fbd 4acc 283e
000001a0: c361 33be 1c94 84bd 2952 8fbe 1793 bcbe
000001b0: c726 023f 338d df3d 11dc 66bd 0789 573e
000001c0: 3e81 583e 76a5 1b3c e2ac 963d bbeb 2cbe
000001d0: 6291 a1bd 31dd bdbe c7b9 983e eba7 813e
000001e0: 3670 cc3e d2bd 9cbe 0134 a5bd b79c 843d
000001f0: 5089 eebe 3772 97be 5f9e 05be e5c7 48be
00000200: 998d cabe 0a35 193c d984 24be 3423 213e
00000210: c179 d63e 8ec6 9bbc 110b 753e 0489 a5be
00000220: 3977 0c3e 3477 243d adbf b4bd 6ab5 1abe
00000230: 0ae2 2f3e 3090 e43d 54ed 083d 184f 95bb
00000240: 06fa 66be 59dc a4be 21ec 64bd 1349 5d3e
00000250: c903 333e 8560 513e 0ff4 4cbe d849 af3d
00000260: fdf5 853d 9428 e93d 9cbc c63d 2f26 a2be
00000270: 855e 133f 9f09 22be 70d5 acbd ea24 43bd
00000280: f3f4 2abe 7b10 1f3d 1089 febe 00ae c5bc
00000290: e88d 503e 69e3 83be 86d4 873d 6b9f 03bf
000002a0: 3d60 3f3e 4a5d 3cbe ad12 83bd f4fc 3cbe
000002b0: a5e4 cdbc e236 2b3c 9f1c 3abe c24f 013f
000002c0: fbd9 633e 3df4 b6bd 374a 86be a59f 48be
000002d0: 38d0 8f3d e839 403e 81a8 da3d 5445 17bd
000002e0: be2c 2ebe 2f84 9c3d 1b7f 593e 4f48 0f3e
000002f0: 5d64 e73e b15b a93d faf5 583e db99 a03d
00000300: eaa3 b93e 7a39 a43d 0fa3 44be c40e 383e
00000310: 2fa2 e5bd 9127 9fbd f71d f93d 4d94 5b3e
00000320: 145e 95be c105 163e a151 a53c 8ecb 193e
00000330: 2107 d8bd 0d85 08bc 7e32 4bbe f57f 713e
00000340: 1cbf 983c fd0f c23d 2133 7d3e 89ab 05be
00000350: 9f5b 323e a9b4 683e 80a1 e9bc 8aff c13e
00000360: bf78 853e a12b 163e ccad 97be e7e9 813e
00000370: d98d cbbd 7d9e 6a3d 186d aabd 97c1 843c
00000380: f415 6c3e 1497 2b3e ae62 2f3e dc83 9c3d
00000390: 88bb 36be b700 683e ffda b63d a432 663e
000003a0: 71f2 2ebe 4d0a 623d 6e3a a5be 5c0d 393e
000003b0: ac45 473e 0f83 2d3d c204 b13d 886a 0a3e
000003c0: ac74 d3bd 49ce 0ebe 54e3 813e b50c e9bd
000003d0: 4f4f 1bbd 92ec 963e c5ea 9abd dd38 423c
000003e0: 932f 063e 3092 dcbd 7f8e 9fbd 8976 0bbc
000003f0: fd1c 72bd 67d8 f63e 6f07 91bd 0d29 f43d

encoder.layers.0.self_attn.out_proj.bias f4 [64]
-0.026663661 -0.13081737 -0.07858456 -0.21976726 -0.35191524 -0.32928374 -0.37573302 -0.06977209
-0.11818617 -0.050823145 -0.10169185 -0.022177136 -0.13133426 -0.1953637 0.17375283 -0.10013211
0.22785991 -0.0799018 0.0962364 -0.14613454 -0.017891899 0.044584554 -0.054200955 0.18521765
-0.115983434 0.08660294 -0.17368962 -0.008614104 -0.12970145 -0.14644018 -0.013685078 0.3417859
-0.023068069 0.093742914 -0.10766463 0.01958589 0.024074484 0.22976795 -0.120047234 0.09359498
0.085818395 0.016771948 -0.20099518 0.018410485 -0.24250756 0.09877895 -0.120013095 0.2108176
-0.14263004 0.08767189 0.029991535 0.06274048 -0.14247677 0.20779672 -0.019783514 0.20558125
0.040180333 0.24577563 -0.12100018 0.04132655 -0.011916593 0.050368216 -0.04294189 -0.052977573
00000000: c06d dabc fdf4 05be f1f0 a0bd ab0a 61be
00000010: 3c2e b4be e197 a8be 1460 c0be abe4 8ebd
00000020: 970b f2bd ee2b 50bd d143 d0bd d3ac b5bc
00000030: 7d7c 06be 6c0d 48be 43ec 313e 1012 cdbd
00000040: 1c54 693e 8ea3 a3bd 9717 c53d 4ba4 15be
00000050: 0892 92bc 4b9e 363d d201 5ebd b2a9 3d3e
00000060: b988 edbd e25c b13d b1db 31be 2c22 0dbc
00000070: 75d0 04be 6af4 15be 6137 60bc 90fe ae3e
00000080: 3ff9 bcbc 49fc bf3d 467f dcbd 9772 a03c
00000090: da37 c53c 4a48 6b3e 53db f5bd baae bf3d
000000a0: 8ec1 af3d 5365 893c aed1 4dbe 96d1 963c
000000b0: e753 78be 9e4c ca3d 6dc9 f5bd 92e0 573e
000000c0: 9c0d 12be 528d b33d cfb0 f53c 157e 803d
000000d0: 6ee5 11be aac8 543e 0911 a2bc e483 523e
000000e0: 2294 243d 9bac 7b3e f1ce f7bd 0746 293d
000000f0: d03d 43bc e74e 4e3d d6e3 2fbd 03ff 58bd

encoder.layers.0.linear1.weight f4 [128, 64]
0.0026712446 0.27652356 0.1458305 0.15482502 0.3551206 0.009615601 -0.07988718 0.051000908
0.12986514 0.019967007 0.061477154 -0.07866477 -0.123068005 0.17511226 0.121944435 -0.009204519
-0.015660021 0.06558585 -0.08099997 0.0514453 -0.10359629 -0.057024945 0.039943434 -0.21677348
0.061300892 0.15448906 0.1776254 0.20934103 -0.049025726 -0.10163788 0.11757638 -0.17700396
0.053500947 -0.18329751 0.034171168 -0.2290625 -0.052213248 -0.25464135 0.11737033 -0.15035659
-0.095640875 -0.21611217 0.109054916 -0.13879403 0.1153451 -0.09257939 0.09210119 -0.38890818
0.19524239 -0.08952761 0.1440216 -0.31438157 0.20352155 -0.32002914 0.25150457 -0.078432426
-0.07305191 -0.008329842 0.15583992 -0.27202773 0.12085203 -0.19333018 -0.06834719 0.00036382079
0.12831047 0.01881992 0.3979468 0.62842417 -0.10990503 0.30846792 0.2233941 -0.19984265
0.14416066 0.11606924 -0.027002828 0.15839154 0.13371678 0.13981031 -0.055478845 -0.08981214
-0.45864555 -0.10297231 0.15716574 0.056139827 -0.4549369 0.12743375 -0.07291787 -0.34678054
0.078848265 -0.03533595 0.23769931 -0.15884478 0.2137213 -0.16613686 0.053325042 0.021133734
0.14659895 -0.5120765 0.52892655 -0.25006968 -0.040846307 -0.33557978 0.30766305 -0.33448923
0.24204248 -0.08099534 0.57034737 -0.05631725 -0.075244084 -0.0012148204 0.44600472 -0.123435915
0.31789035 -0.021535749 0.011639785 -0.32026643 0.24123397 -0.24811932 0.09750171 -0.3427399
-0.16978237 -0.41383108 0.28222197 -0.20393234 0.07888868 -0.26813915 0.40411472 -0.58126277
0.13039492 0.094603084 0.45402515 0.34710225 0.0735836 0.7084382 0.10128619 0.20314814
0.17100056 -0.23072438 -0.118576996 -0.38597324 0.48858348 -0.23122029 0.5422392 -0.015382434
-0.3513483 0.1537501 0.2938118 0.36540717 0.12221659 0.576476 -0.05236688 0.23092203
-0.0316318 0.11448065 0.047254827 -0.31976065 -0.46204627 0.11136265 -0.18322013 -0.4253434
0.16499896 0.0033651963 0.3314686 -0.21738191 -0.7832618 -0.83392113 0.6259357 -0.02964637
-0.05497046 -0.13340275 -0.03922126 -0.38215274 0.22319776 -0.21653096 0.18708716 -0.15660669
-0.20961143 -0.2847903 0.35773978 -0.23321855 0.046375863 -0.45622933 -0.0032877352 -0.38044682
-0.30122894 -0.43473202 0.30746695 -0.25595805 0.5489467 0.023491623 -0.04275458 -0.42915332
0.028779998 -0.2903846 -0.094962545 0.06153009 0.35111997 -0.16274427 0.12795636 -0.20156498
0.15221904 0.5698853 0.22365671 0.5478171 -0.1023163 -0.053716786 0.10003006 -0.073724255
-0.62043226 -0.08821599 -0.41139898 -0.24765812 0.3976261 -0.17968532 0.051182766 -0.519221
0.6700035 0.24355264 -0.043241493 -0.96740615 0.5573331 0.28061298 0.095910944 -0.5753641
0.11971868 0.43033814 0.011147626 -0.4915201 0.5609429 0.09265728 0.14503166 -0.33563408
0.43095168 -0.28809655 -0.020394523 -0.28334257 0.22139017 0.049124803 -0.10619096 -0.20408307
0.6019101 -0.67786443 -0.37041232 -0.21615069 0.46950364 -0.071916476 -0.027921008 -0.1975194
0.07616391 0.17441216 0.09782784 -0.67796147 0.46237218 -0.2042995 -0.007966292 -0.109859966
00000000: 0c10 2f3b 7f94 8d3e 9754 153e 738a 1e3e
00000010: 5ed2 b53e c18a 1d3c e49b a3bd 54e6 503d
00000020: 5efb 043e d991 a33c 78cf 7b3d ff1a a1bd
00000030: 140b fcbd a150 333e 01be f93d 8dce 16bc
00000040: 7249 80bc e051 863d 50e3 a5bd 4fb8 523d
00000050: 4b2a d4bd fd92 69bd ba9b 233d def9 5dbe
00000060: a516 7b3d 6132 1e3e 6fe3 353e 7f5d 563e
00000070: 33cf 48bd 8527 d0bd e3cb f03d 8740 35be
00000080: cf23 5b3d 58b2 3bbe 11f7 0b3d 5c8f 6abe
00000090: 8fdd 55bd 5a60 82be db5f f03d 14f7 19be
000000a0: 5ddf c3bd 824c 5dbe 2f58 df3d 0620 0ebe
000000b0: 0d3a ec3d 439a bdbd 8c9f bc3d f91e c7be
000000c0: 9fed 473e 405a b7bd 667a 133e 9ff6 a0be
000000d0: f467 503e dcda a3be 35c5 803e 2ea1 a0bd
000000e0: 3d9c 95bd e479 08bc 8094 1f3e 3847 8bbe
000000f0: 4581 f73d 59f8 45be 9df9 8bbd 33bf be39
00000100: d263 033e 3c2c 9a3c afbf cb3e 68e0 203f
00000110: e315 e1bd 82ef 9d3e 6cc1 643e 8da3 4cbe
00000120: da9e 133e b6b5 ed3d 0935 ddbc 6431 223e
00000130: 0ded 083e 6f2a 0f3e c93d 63bd 6def b7bd
00000140: 97d3 eabe 25e3 d2bd 0ef0 203e e0f2 653d
00000150: 7ded e8be fe7d 023e f755 95bd 388d b1be
00000160: 337b a13d 6ebc 10bd 7367 733e 35a8 22be
00000170: c2d9 5a3e c81f 2abe 5c6b 5a3d a720 ad3c
00000180: 091e 163e 7217 03bf bb67 073f 2209 80be
00000190: 754e 27bd 1dd1 abbe 0386 9d3e 2c42 abbe
000001a0: fcd9 773e e3e0 a5bd 4902 123f ebac 66bd
000001b0: 9219 9abd 9c3a 9fba bb5a e43e f8cb fcbd
000001c0: 86c2 a23e bd6b b0bc ccb4 3e3c f6f9 a3be
000001d0: 0a06 773e fe12 7ebe faae c73d 9b7b afbe
000001e0: 6edb 2dbe abe1 d3be 667f 903e a4d3 50be
000001f0: 6390 a13d 8949 89be 20e8 ce3e a3cd 14bf
00000200: 3f86 053e 43bf c13d fc75 e83e 63b7 b13e
00000210: 00b3 963d 355c 353f 226f cf3d 1106 503e
00000220: c51a 2f3e 0343 6cbe 7fd8 f2bd 499e c5be
00000230: 9d27 fa3e 03c5 6cbe 30d0 0a3f 9b06 7cbc
00000240: ede3 b3be ab70 1d3e 806e 963e a616 bb3e
00000250: b14c fa3d ee93 133f a77e 56bd d376 6c3e
00000260: 5990 01bd d574 ea3d 478e 413d abb7 a3be
00000270: 5491 ecbe 1a12 e43d 0f9e 3bbe 9cc6 d9be
00000280: 7df5 283e a08a 5c3b 41b6 a93e 5d99 5ebe
00000290: d883 48bf db7b 55bf 523d 203f f2dc f2bc
000002a0: b428 61bd bb9a 08be 79a6 20bd 86a9 c3be
000002b0: f48d 643e 4bba 5dbe c793 3f3e 815d 20be
000002c0: 61a4 56be 09d0 91be ab29 b73e d8d0 6ebe
000002d0: 9ef4 3d3d e496 e9be 0b77 57bb edc9 c2be
000002e0: ae3a 9abe 3295 debe 4f6c 9d3e ef0c 83be
000002f0: c587 0c3f 8171 c03c 6d1f 2fbd fcb9 dbbe
00000300: 08c4 eb3c 4aad 94be b97b c2bd fa06 7c3d
00000310: ffc5 b33e 6fa6 26be fe06 033e 0d67 4ebe
00000320: 4fdf 1b3e 01e4 113f 4406 653e be3d 0c3f
00000330: 358b d1bd 2206 5cbd 8fdc cc3d befc 96bd
00000340: a6d4 1ebf 96aa b4bd e3a2 d2be 179a 7dbe
00000350: a695 cb3e 6eff 37be 05a5 513d abeb 04bf
00000360: 5985 2b3f dd65 793e fe1d 31bd eea7 77bf
00000370: 62ad 0e3f 81ac 8f3e f56c c43d 104b 13bf
00000380: 112f f53d 4855 dc3e 88a4 363c 86a8 fbbe
00000390: f499 0f3f 1ac3 bd3d 2e83 143e 3bd8 abbe
000003a0: b3a5 dc3e 6481 93be 6a12 a7bc 4712 91be
000003b0: 1bb4 623e 1737 493d a57a d9bd 27fb 50be
000003c0: c816 1a3f 8688 2dbf afa6 bdbe 9b56 5dbe
000003d0: c862 f03e f248 93bd 99ba e4bc 8742 4abe
000003e0: d3fb 9b3d 1a99 323e f659 c83d e28e 2dbf
000003f0: 0cbc ec3e e333 51be 0d85 02bc 43fe e0bd

encoder.layers.0.linear1.bias f4 [128]
-0.3827846 -0.50772125 -0.5000589 -0.443735 -0.43429464 -0.60902417 -0.35397714 -0.43269074
-0.3660477 -0.48423302 -0.44137442 -0.44248563 -0.53672296 -0.43427384 -0.3000308 -0.4643246
-0.52618676 -0.31304687 -0.41198677 -0.27305308 -0.29931208 -0.31733337 -0.41846433 -0.45605695
-0.3147277 -0.47672918 -0.3166094 -0.5130919 -0.35479257 -0.49997774 -0.4894396 -0.4597412
-0.30761573 -0.5821198 -0.40788946 -0.4147631 -0.19071324 -0.544776 -0.43417594 -0.4930471
-0.3679239 -0.34197077 -0.3224617 -0.19457345 -0.391216 -0.47693083 -0.41499892 -0.48904523
-0.38827068 -0.45206267 -0.32246813 -0.24873155 -0.44895256 -0.5032837 -0.4302072 -0.33174825
-0.526817 -0.31480506 -0.31738412 -0.4717224 -0.56622404 -0.2771158 -0.42418897 -0.56412125
-0.500036 -0.46269143 -0.3857261 -0.2711261 -0.20584774 -0.38380814 -0.42999208 -0.4399073
-0.38005483 -0.36611485 -0.42963982 -0.2981702 -0.5559682 -0.40284878 -0.42987227 -0.31198442
-0.45335007 -0.37474427 -0.41908053 -0.46526054 -0.3628111 -0.25980937 -0.43077755 -0.33572906
-0.51393586 -0.2764813 -0.4501917 -0.29304072 -0.3445651 -0.4526306 -0.4651245 -0.41747862
-0.48854387 -0.3184475 -0.4127916 -0.5967864 -0.4298728 -0.5256962 -0.43088993 -0.46732616
-0.34019944 -0.35112324 -0.40832832 -0.51769197 -0.2734215 -0.4491968 -0.31203425 -0.39954355
-0.5292957 -0.3336928 -0.2649199 -0.47765332 -0.4604377 -0.5778346 -0.4026665 -0.4737925
-0.24017878 -0.4028472 -0.3742652 -0.33989307 -0.2376308 -0.37876618 -0.3181418 -0.37714875
00000000: 58fc c3be 05fa 01bf dc03 00bf 3c31 e3be
00000010: de5b debe 02e9 1bbf 7e3c b5be a489 ddbe
00000020: 9b6a bbbe 64ed f7be d4fb e1be 7a8d e2be
00000030: ad66 09bf 2459 debe a39d 99be f4bb edbe
00000040: 2db4 06bf ae47 a0be eeef d2be 9dcd 8bbe
00000050: 6f3f 99be 8579 a2be f540 d6be 4c80 e9be
00000060: fd23 a1be d915 f4be a11a a2be fe59 03bf
00000070: 5fa7 b5be 15fd ffbe d497 fabe 3363 ebbe
00000080: cf7f 9dbe ce05 15bf e3d6 d0be d45b d4be
00000090: 554a 43be 7176 0bbf 4f4c debe ab70 fcbe
000000a0: 8560 bcbe cb16 afbe b319 a5be 433e 47be
000000b0: 774d c8be 4730 f4be bd7a d4be 2364 fabe
000000c0: 6acb c6be c274 e7be 8b1a a5be 7cb3 7ebe
000000d0: 1cdd e5be 33d7 00bf 1e44 dcbe e8da a9be
000000e0: 7bdd 06bf 212e a1be 2c80 a2be 9985 f1be
000000f0: 0ff4 10bf 1fe2 8dbe 4c2f d9be 406a 10bf
00000100: 5c02 00bf e4e5 ecbe e47d c5be 0ad1 8abe
00000110: c0c9 52be 8082 c4be ec27 dcbe 883b e1be
00000120: 8c96 c2be 6873 bbbe c0f9 dbbe c4a9 98be
00000130: ef53 0ebf 3242 cebe 3818 dcbe 6cbc 9fbe
00000140: 801d e8be 7bde bfbe b991 d6be a136 eebe
00000150: 60c2 b9be bc05 85be e08e dcbe aee4 abbe
00000160: 4d91 03bf f58e 8dbe 877f e6be 6f09 96be
00000170: d66a b0be 33bf e7be cc24 eebe c2bf d5be
00000180: 6c22 fabe 8d0b a3be 6c59 d3be fec6 18bf
00000190: 4a18 dcbe 0794 06bf 9b9d dcbe 6045 efbe
000001a0: 9f2e aebe 6dc6 b3be 6910 d1be 7687 04bf
000001b0: e7fd 8bbe 1ffd e5be f4c2 9fbe f990 ccbe
000001c0: ec7f 07bf c8d9 aabe 95a3 87be fa8e f4be
000001d0: 7dbe ebbe f8ec 13bf 4e2a cebe ee94 f2be
000001e0: 6df1 75be fd41 cebe b09f bfbe 7706 aebe
000001f0: 7d55 73be a4ed c1be 7be3 a2be a419 c1be

encoder.layers.0.linear2.weight f4 [64, 128]
-0.24184152 0.17344119 0.23104721 -0.91150445 -0.36411658 0.1396849 0.19266018 0.007894633
0.05743785 0.16851547 -0.0020569135 -0.012607837 -0.04394931 -0.009947502 0.011681519 -0.11811033
-0.18833318 0.16608723 0.013881273 -0.38207653 0.18634085 -0.045492694 -0.13018154 -0.21406151
-0.19096862 0.27344915 0.42036486 -0.23549385 -0.19822039 -0.047881417 0.24897036 -0.12896603
-0.07435647 -0.0166525 -0.38106447 -0.03452654 -0.55333275 -0.020796116 -0.33458832 0.1046416
-0.0401209 0.40476152 0.06253833 -0.24635623 0.29937986 -0.13771853 0.13891123 -0.19391328
-0.108060464 0.069807425 -0.35531506 0.032568827 -0.009187428 0.02457375 -0.32866344 -0.19627243
0.50053793 -0.10822768 -0.24110341 -0.053729076 0.046882857 -0.49251264 -0.120148644 -0.07353528
-0.16851464 -0.010572111 0.24006437 -0.052214064 -0.23676336 -0.2865846 -0.2507634 -0.3512513
-0.3649996 -0.05975243 0.38628453 -0.3706629 -0.012801654 -0.040494204 -0.6066433 -0.2886625
-0.5129323 -0.45012373 -0.62231106 -0.0048244908 0.2818905 0.7021441 0.10314477 -0.2642842
-0.07577401 -0.044279754 -0.022539645 -0.11034332 -0.11529635 0.3438542 -0.73646075 -0.01968296
-0.49303445 0.7470232 -0.38124153 0.1313836 -0.12752454 -0.08850716 -0.15691158 0.26618752
-0.17120673 0.14142062 0.065199435 -0.23726702 0.18632267 -0.23657352 -0.04372323 0.08750197
-0.12249516 -0.3070317 -0.19494122 -0.30701607 0.18787585 -0.22143292 0.07622649 -0.07729653
0.108612075 -0.31741387 0.09601336 -0.3957951 -0.50896573 -0.008469491 -0.024224455 0.18391551
0.17400205 -0.028580764 0.09694796 -0.18163526 -0.40551987 -0.0719805 -0.2989318 -0.5133014
0.16790667 0.009100787 0.18759863 0.030097313 0.28504622 -0.38254452 -0.0044616964 0.118883766
0.13747692 0.3218754 0.027604867 0.60654503 -0.20943947 0.077898644 0.22420923 -0.45895424
0.20189025 0.07745738 -0.19960539 -0.19766991 0.24896547 0.0092230085 0.109499365 0.2233866
0.08500137 -0.19104922 -1.0365124 0.28940284 0.395948 0.25058755 0.038850855 0.14483106
-0.049314238 -0.59792674 0.80994475 -0.567677 -0.25357682 0.020351803 0.021084648 0.034118284
0.23855536 0.08851078 -0.18071869 0.21650027 -0.016705213 -0.16590075 0.27918503 0.21310581
-0.022201514 0.06624736 0.25161234 0.046677228 0.039016534 0.5703829 0.10178176 0.33366916
0.16091144 -0.3882469 -0.23775363 -0.21038108 -0.16742155 0.07020869 -0.30536896 0.16417982
0.26023868 0.22745422 -0.091661446 -0.08555959 -0.0026174008 -0.11381142 -0.41174933 -0.17753215
0.24317743 0.13480544 0.45741135 -0.06137561 -0.08657001 -0.04042428 0.24133605 0.3470578
0.22251798 0.042710427 -0.017839627 -0.081696294 -0.41843936 -0.025294285 0.47662762 0.43797854
-0.11308495 -1.0062925 -0.9445226 -0.15173149 -0.011481535 0.0052633267 -0.098171055 0.26188862
-9.850292e-05 0.020641007 -0.10166991 -0.32455057 -0.4917566 -0.2458163 0.14119302 0.0700172
0.13665086 0.34904826 -0.30528483 -0.13895825 -0.15484929 -0.05494369 -0.27550477 0.5126285
0.4114123 -0.6408776 -0.27873963 0.22231023 0.017356083 0.013540629 0.24749877 0.15038095
00000000: 4ea5 77be 919a 313e a497 6c3e 5b58 69bf
00000010: 7d6d babe 8f09 0f3e b648 453e 7e58 013c
00000020: f343 6b3d 528f 2c3e 48cd 06bb 1a91 4ebc
00000030: 3104 34bd d9fa 22bc d863 3f3c d4e3 f1bd
00000040: 6ada 40be c512 2a3e 476e 633c 899f c3be
00000050: 23d0 3e3e 8c56 3abd 4f4e 05be f132 5bbe
00000060: 478d 43be 8701 8c3e 103a d73e 4d25 71be
00000070: 49fa 4abe 4e1f 44bd 16f2 7e3e ac0f 04be
00000080: 3448 98bd d36a 88bc e21a c3be b46b 0dbd
00000090: 37a7 0dbf 9e5c aabc 294f abbe 564e d63d
000000a0: d055 24bd e73c cf3e 1914 803d cf44 7cbe
000000b0: 5148 993e 1606 0dbe bf3e 0e3e 3491 46be
000000c0: ce4e ddbd 32f7 8e3d dbeb b5be e466 053d
000000d0: de86 16bc e44e c93c 9346 a8be a4fb 48be
000000e0: 4123 003f 79a6 ddbd d0e3 76be 0513 5cbd
000000f0: 3d08 403d 9e2a fcbe 7e10 f6bd aa99 96bd
00000100: 1a8f 2cbe a636 2dbc 6fd3 753e 6ade 55bd
00000110: 1872 72be 37bb 92be 0f64 80be 36d7 b3be
00000120: 3ae1 babe f7be 74bd 16c7 c53e 87c7 bdbe
00000130: 07be 51bc 40dd 25bd fa4c 1bbf 92cb 93be
00000140: 884f 03bf 9e76 e6be c74f 1fbf c316 9ebb
00000150: f453 903e b7bf 333f 913d d33d 4250 87be
00000160: 672f 9bbd b05e 35bd 10a5 b8bc aefb e1bd
00000170: 7e20 ecbd a80d b03e b188 3cbf 293e a1bc
00000180: 036f fcbe ea3c 3f3f 1732 c3be 6c89 063e
00000190: cb95 02be 3e43 b5bd 6ead 20be bb49 883e
000001a0: d150 2fbe 91d0 103e 4887 853d 20f6 72be
000001b0: 5fcb 3e3e 5440 72be 2117 33bd 3c34 b33d
000001c0: bede fabd 4233 9dbe ac9e 47be 3631 9dbe
000001d0: 8762 403e 50bf 62be a21c 9c3d a54d 9ebd
000001e0: 0270 de3d 1284 a2be a7a2 c43d a8a5 cabe
000001f0: 944b 02bf 9fc3 0abc 5d72 c6bc 5954 3c3e
00000200: 982d 323e 3522 eabc a78c c63d 98fe 39be
00000210: 4da0 cfbe 836a 93bd 970d 99be b867 03bf
00000220: baef 2b3e 781b 153c db19 403e a48e f63c
00000230: 94f1 913e e0dc c3be 6c33 92bb 5579 f33d
00000240: c0c6 0c3e dacc a43e 9a23 e23c 8946 1b3f
00000250: 4d77 56be 5389 9f3d 1b97 653e 0dfc eabe
00000260: 51bc 4e3e faa1 9e3d 5b65 4cbe fb69 4abe
00000270: cef0 7e3e 1a1c 173c 3441 e03d 75bf 643e
00000280: 3315 ae3d 68a2 43be 70ac 84bf 9c2c 943e
00000290: b2b9 ca3e 034d 803e 1322 1f3d 984e 143e
000002a0: bafd 49bd ba11 19bf 8a58 4f3f 4853 11bf
000002b0: d2d4 81be d3b8 a63c b6b9 ac3c 9dbf 0b3d
000002c0: db47 743e 2445 b53d 520e 39be 3fb2 5d3e
000002d0: 5fd9 88bc e3e1 29be 57f1 8e3e 6938 5a3e
000002e0: f3df b5bc b2ac 873d 55d3 803e 9f30 3f3d
000002f0: cdcf 1f3d 9d04 123f f572 d03d afd6 aa3e
00000300: f8c5 243e 4cc8 c6be b075 73be 236e 57be
00000310: 8e70 2bbe 93c9 8f3d 5259 9cbe c11e 283e
00000320: 013e 853e c2e9 683e ffb8 bbbd de39 afbd
00000330: b388 2bbb f615 e9bd cfd0 d2be fdca 35be
00000340: 8103 793e 700a 0a3e d231 ea3e fe64 7bbd
00000350: 9e4b b1bd ee93 25bd cc20 773e 8fb1 b13e
00000360: c1db 633e 21f1 2e3d 6924 92bc 6350 a7bd
00000370: af3d d6be f635 cfbc 8908 f43e b93e e03e
00000380: 1599 e7bd 31ce 80bf 3ccc 71bf 805f 1bbe
00000390: 0c1d 3cbc fc77 ac3b e80d c9bd 4416 863e
000003a0: 5a93 ceb8 5417 a93c 5038 d0bd 7e2b a6be
000003b0: 85c7 fbbe 45b7 7bbe e794 103e 2e65 8f3d
000003c0: 34ee 0b3e 74b6 b23e 4b4e 9cbe 124b 0ebe
000003d0: d090 1ebe a20c 61bd f60e 8dbe 9f3b 033f
000003e0: a2a4 d23e 8e10 24bf f6b6 8ebe 4ba5 633e
000003f0: 582e 8e3c 84d9 5d3c 5170 7d3e 77fd 193e

encoder.layers.0.linear2.bias f4 [64]
0.06998536 0.034556143 0.035324026 0.0648624 -0.010071538 -0.01669925 0.038506787 -0.0010767939
0.026669921 -0.024251487 -0.0064638597 0.040446218 0.024943655 0.02338893 -0.012842309 0.03160799
-0.0017764126 0.040705793 -0.066544876 0.029347619 -0.071783215 -0.03174432 0.009731907 -0.03568033
0.006081783 0.03057618 0.02457819 -0.004273773 -0.015347161 -0.041350044 -0.013996371 -0.013875955
0.0223126 -0.0047524036 0.011742566 -0.02505941 0.018707894 -0.021980537 0.060458295 -0.029453736
0.011397593 -0.033867165 0.03715692 -0.0023955565 0.0398949 -0.068841934 0.015954128 -0.030034702
-0.00066612364 -0.006945092 0.019271892 -0.07042255 0.0084527545 -0.0062338603 0.015353285 -0.049815245
0.041595254 -0.057932705 -0.02703496 -0.01783499 -0.0013931468 -0.019617546 0.009151716 -0.014079141
00000000: 7c54 8f3d be8a 0d3d edaf 103d 94d6 843d
00000010: 1803 25bc decc 88bc 4bb9 1d3d 3523 8dba
00000020: e17a da3c 0eab c6bc c9ce d3bb efaa 253d
00000030: a356 cc3c 249a bf3c 8c68 52bc 6177 013d
00000040: 84d6 e8ba 1ebb 263d ae48 88bd 6b6a f03c
00000050: 1403 93bd 5506 02bd 9472 1f3c 8a25 12bd
00000060: b249 c73b e67a fa3c 3358 c93c 020b 8cbb
00000070: a972 7bbc aa5e 29bd 0951 65bc f957 63bc
00000080: eac8 b63c 0dba 9bbb e463 403c 6449 cdbc
00000090: 4c41 993c 8710 b4bc 1ea3 773d f648 f1bc
000000a0: f8bc 3a3c 4cb8 0abd db31 183d c5fe 1cbb
000000b0: d668 233d 00fd 8cbd 3bb2 823c 560b f6bc
000000c0: cd9e 2eba a893 e3bb 16e0 9d3c b339 90bd
000000d0: 6c7d 0a3c 6945 ccbb 588c 7b3c 120b 4cbd
000000e0: c95f 2a3d d84a 6dbd 6c78 ddbc af1a 92bc
000000f0: 409a b6ba fab4 a0bc 14f1 153c 33ac 66bc

encoder.layers.0.norm1.weight f4 [64]
0.7269312 0.535197 0.5425646 0.6140429 0.9334085 0.71515304 0.8346062 0.88974565
0.9702297 0.6732005 0.7315798 0.71444315 1.0387228 0.9155622 0.71091795 0.88111925
1.1859659 1.1141536 1.2804015 0.87685907 1.2518859 1.0479977 1.1843373 1.0091966
0.8481553 1.0530186 1.3007306 0.79751194 1.1594808 0.83957946 1.2246895 1.1468406
1.4918675 1.215399 1.1287665 1.2503446 1.1109457 1.4251463 0.9407664 1.4300531
0.98794454 0.9279604 0.9789412 0.9771137 1.366906 1.2167577 1.1676538 0.9447692
1.3603302 1.2774309 0.8497648 1.7417518 1.257095 1.3951864 1.3168904 1.2120162
1.1905473 1.009146 1.2219379 1.2242494 1.0456547 1.3336971 0.7278554 1.1647547
00000000: 2a18 3a3f ac02 093f 83e5 0a3f ea31 1d3f
00000010: dcf3 6e3f 4514 373f c0a8 553f 5fc6 633f
00000020: f960 783f de56 2c3f d048 3b3f bfe5 363f
00000030: def4 843f 4962 6a3f b8fe 353f 0891 613f
00000040: bbcd 973f 969c 8e3f 32e4 a33f d679 603f
00000050: cc3d a03f ca24 863f 5d98 973f 5b2d 813f
00000060: b520 593f 50c9 863f 577e a63f be29 4c3f
00000070: de69 943f aeee 563f a0c2 9c3f accb 923f
00000080: 84f5 be3f 3292 9b3f 6c7b 903f 4b0b a03f
00000090: 7833 8e3f 326b b63f 11d6 703f fb0b b73f
000000a0: efe9 7c3f d08e 6d3f e49b 7a3f 2024 7a3f
000000b0: c7f6 ae3f b7be 9b3f ae75 953f 65dc 713f
000000c0: 4d1f ae3f db82 a33f 308a 593f b9f1 de3f
000000d0: 7de8 a03f 7895 b23f dd8f a83f 5923 9b3f
000000e0: db63 983f b22b 813f 7668 9c3f 34b4 9c3f
000000f0: 03d8 853f 96b6 aa3f bb54 3a3f af16 953f

encoder.layers.0.norm1.bias f4 [64]
-0.4302714 -0.52892613 -0.41051522 -0.5795302 -0.59991205 -0.5661815 -0.80722135 -0.23530883
-0.42286664 0.089596614 -0.34652779 -0.22505608 -0.472915 -0.5494795 0.27223513 -0.35906848
0.69819313 -0.056864183 0.66182125 -0.2223991 0.53589875 0.16698137 -0.23118205 0.7671064
-0.20998532 -0.025760476 -0.76468354 0.25415054 -0.42561954 0.13558815 -0.31145504 1.1925626
-0.39199775 0.26028427 -0.68076897 0.3020023 0.15368341 1.1616836 -0.52485794 0.7577501
-0.011135908 0.3586792 -0.691789 -0.1460264 -0.6830321 0.73444813 -0.55157405 0.67577183
-0.64671224 0.21321112 -0.2664744 1.320139 -1.2242292 1.1444949 -0.27018794 0.84218115
-0.1640243 0.6095051 -0.54560786 0.58314496 0.030604113 0.67164254 0.058088332 0.29886127
00000000: 884c dcbe b467 07bf 0d2f d2be 175c 14bf
00000010: d693 19bf 45f1 10bf 0fa6 4ebf ccf4 70be
00000020: fa81 d8be 6e7e b73d 176c b1be 1a75 66be
00000030: ea21 f2be b0aa 0cbf 6762 8b3e d3d7 b7be
00000040: c9bc 323f 6bea 68bd 1e6d 293f 97bc 63be
00000050: a930 093f 2afd 2a3e fdba 6cbe 1661 443f
00000060: 6406 57be a207 d3bc 4dc2 43bf 0520 823e
00000070: ceea d9be 9fd7 0a3e 0977 9fbe e4a5 983f
00000080: eeb3 c8be fb43 853e e046 2ebf 0ca0 9a3e
00000090: 2f5f 1d3e 0cb2 943f 175d 06bf e9fb 413f
000000a0: 6273 36bc cda4 b73e 1519 31bf f287 15be
000000b0: 31db 2ebf cb04 3c3f f533 0dbf 62ff 2c3f
000000c0: ef8e 25bf 0454 5a3e 556f 88be 51fa a83f
000000d0: 8bb3 9cbf cf7e 923f 1356 8abe 2f99 573f
000000e0: fcf5 27be 8708 1c3f f5ac 0bbf fd48 153f
000000f0: 7ab5 fa3c c4f0 2b3f 08ee 6d3d 5804 993e

encoder.layers.0.norm2.weight f4 [64]
0.59912205 0.54769766 0.42594415 0.39575505 0.35929677 0.33486712 0.27685094 0.48737907
0.53795975 0.40516916 0.6222857 0.42300823 0.56243956 0.38850075 0.43076578 0.70134044
0.56174755 0.6558184 0.63420355 0.7039851 0.75121695 0.5568574 0.62271667 0.58654034
0.72587484 0.73411554 0.58328575 0.70231813 0.7659389 0.5464736 0.79925865 0.4132273
0.79478276 0.6029477 0.553648 0.86723477 0.8074992 0.51901346 0.5116826 0.69723994
0.724301 0.7079942 0.5454416 0.6729395 0.4856577 0.56943727 0.65416276 0.5299772
0.7229106 0.84147567 0.6982592 0.6569517 0.44806138 0.5221941 0.6997105 0.53138137
0.72061485 0.5426466 0.6576952 0.72030103 0.8447895 0.71133816 0.56128436 0.76197875
00000000: 1060 193f ea35 0c3f 5a15 da3e 68a0 ca3e
00000010: bff5 b73e b473 ab3e 68bf 8d3e c089 f93e
00000020: bbb7 093f 5572 cf3e 1e4e 1f3f 8994 d83e
00000030: 0afc 0f3f 92e9 c63e 558d dc3e 0c8b 333f
00000040: b0ce 0f3f b7e3 273f 2a5b 223f 5e38 343f
00000050: c14f 403f 358e 0e3f 5c6a 1f3f 8227 163f
00000060: efd2 393f ffee 3b3f 3752 153f 1fcb 333f
00000070: 9214 443f b2e5 0b3f 379c 4c3f 8792 d33e
00000080: e276 4b3f c85a 1a3f e0bb 0d3f 1903 5e3f
00000090: 44b8 4e3f 11de 043f a2fd 023f 517e 323f
000000a0: ca6b 393f 1c3f 353f 10a2 0b3f c345 2c3f
000000b0: 20a8 f83e a4c6 113f 3677 273f 96ac 073f
000000c0: ab10 393f f36a 573f 1dc1 323f fd2d 283f
000000d0: 4d68 e53e 83ae 053f 3a20 333f 9c08 083f
000000e0: 377a 383f e3ea 0a3f b65e 283f a665 383f
000000f0: 2044 583f 421a 363f 55b0 0f3f 0a11 433f

encoder.layers.0.norm2.bias f4 [64]
0.23586307 0.25199938 0.152081 0.21885952 0.23143297 0.20578915 0.2174949 0.13228263
0.23242955 0.044245448 0.24641284 0.10030807 0.26954663 0.25329128 -0.075260974 0.22127323
-0.38332823 0.10369204 -0.35508847 0.17421907 -0.27711403 -0.04770039 0.042715166 -0.33409998
0.08999492 -0.1389419 0.30731842 -0.20227036 0.2263859 -0.0642397 0.26094738 -0.49666986
0.17432255 -0.3092099 0.32447445 -0.29265884 0.010937569 -0.66120595 0.27981997 -0.5489922
0.076521575 -0.26784766 0.39883113 -0.08415699 0.42569306 -0.45214662 0.30526528 -0.40502423
0.4737881 -0.35967094 0.18747096 -0.5748887 0.51418877 -0.58745366 0.25936225 -0.46829844
0.17454514 -0.43981653 0.3623442 -0.42905504 0.06989287 -0.4466057 0.05697242 -0.25069612
00000000: 1786 713e 1006 813e 1fbb 1b3e b61c 603e
00000010: c4fc 6c3e 64ba 523e fcb6 5e3e 1975 073e
00000020: 0302 6e3e b73a 353d a653 7c3e 516e cd3d
00000030: 0402 8a3e 65af 813e 6d22 9abd 7395 623e
00000040: 9943 c4be 7e5c d43d 28ce b5be 7c66 323e
00000050: e4e1 8dbe 7c61 43bd 19f6 2e3d 270f abbe
00000060: 424f b83d c946 0ebe d758 9d3e f61f 4fbe
00000070: b5d1 673e 1b90 83bd e59a 853e 834b febe
00000080: 9c81 323e c350 9ebe 8421 a63e 61d7 95be
00000090: 7d33 333c cb44 29bf 9044 8f3e c18a 0cbf
000000a0: 58b7 9c3d 5423 89be 9833 cc3e 805a acbd
000000b0: 71f4 d93e c37f e7be bb4b 9c3e 565f cfbe
000000c0: 5b94 f23e ca26 b8be 63f8 3f3e e82b 13bf
000000d0: e0a1 033f 5d63 16bf 21cb 843e d0c4 efbe
000000e0: f6bb 323e a22f e1be 2e85 b93e 1aad dbbe
000000f0: fe23 8f3d 81a9 e4be ea5b 693d 3e5b 80be
